…
To enable the following instructions: AVX2 AVX512F FMA, in other operations, rebuild TensorFlow with the appropriate compiler flags.
2025-05-14 10:49:02.042424: W tensorflow/compiler/tf2tensorrt/utils/py_utils.cc:38] TF-TRT Warning: Could not find TensorRT
 
first y shape:  (112000, 8)
datagenerator definition successfull
start AI architecture definition
Model: "functional"
┏━━━━━━━━━━━━━━━━━━━━━━━━━━━━━━━━━┳━━━━━━━━━━━━━━━━━━━━━━━━┳━━━━━━━━━━━━━━━┓
┃ Layer (type)                    ┃ Output Shape           ┃       Param # ┃
┡━━━━━━━━━━━━━━━━━━━━━━━━━━━━━━━━━╇━━━━━━━━━━━━━━━━━━━━━━━━╇━━━━━━━━━━━━━━━┩
│ input1 (InputLayer)             │ (None, 2, 4096, 1)     │             0 │
├─────────────────────────────────┼────────────────────────┼───────────────┤
│ conv2d (Conv2D)                 │ (None, 1, 4089, 40)    │           680 │
├─────────────────────────────────┼────────────────────────┼───────────────┤
│ dropout (Dropout)               │ (None, 1, 4089, 40)    │             0 │
├─────────────────────────────────┼────────────────────────┼───────────────┤
│ conv2d_1 (Conv2D)               │ (None, 1, 4086, 10)    │         1,610 │
├─────────────────────────────────┼────────────────────────┼───────────────┤
│ dropout_1 (Dropout)             │ (None, 1, 4086, 10)    │             0 │
├─────────────────────────────────┼────────────────────────┼───────────────┤
│ flatten (Flatten)               │ (None, 40860)          │             0 │
├─────────────────────────────────┼────────────────────────┼───────────────┤
│ dense1 (Dense)                  │ (None, 128)            │     5,230,208 │
├─────────────────────────────────┼────────────────────────┼───────────────┤
│ dense2 (Dense)                  │ (None, 8)              │         1,032 │
├─────────────────────────────────┼────────────────────────┼───────────────┤
│ reshape (Reshape)               │ (None, 8)              │             0 │
└─────────────────────────────────┴────────────────────────┴───────────────┘
 Total params: 5,233,530 (19.96 MB)
 Trainable params: 5,233,530 (19.96 MB)
 Non-trainable params: 0 (0.00 B)
end of architecture
 
Training start
Epoch 1/100

Epoch 1: val_loss improved from inf to 1.26083, saving model to ./weights_folder/iq_eval_4096_norm.keras
2450/2450 - 649s - 265ms/step - categorical_accuracy: 0.3458 - loss: 1.5780 - val_categorical_accuracy: 0.4550 - val_loss: 1.2608
…
