…
2024-02-29 15:13:35.084285: I tensorflow/compiler/mlir/mlir_graph_optimization_pass.cc:116] None of the MLIR optimization passes are enabled (registered 2)
2024-02-29 15:13:35.084932: I tensorflow/core/platform/profile_utils/cpu_utils.cc:112] CPU Frequency: 2600000000 Hz
 
first y shape:  (112000, 8)
datagenerator definition successfull
start AI architecture definition
Model: "model"
_________________________________________________________________
Layer (type)                 Output Shape              Param #   
=================================================================
input6 (InputLayer)          [(None, 2, 128, 1)]       0         
_________________________________________________________________
conv2d (Conv2D)              (None, 1, 121, 30)        510       
_________________________________________________________________
dropout (Dropout)            (None, 1, 121, 30)        0         
_________________________________________________________________
conv2d_1 (Conv2D)            (None, 1, 118, 10)        1210      
_________________________________________________________________
dropout_1 (Dropout)          (None, 1, 118, 10)        0         
_________________________________________________________________
flatten (Flatten)            (None, 1180)              0         
_________________________________________________________________
dense1 (Dense)               (None, 128)               151168    
_________________________________________________________________
dense2 (Dense)               (None, 8)                 1032      
_________________________________________________________________
reshape (Reshape)            (None, 8)                 0         
=================================================================
Total params: 153,920
Trainable params: 153,920
Non-trainable params: 0
_________________________________________________________________
end of architecture
 
Training start
Epoch 1/100
2450/2450 - 779s - loss: 2.0816 - accuracy: 0.1272 - val_loss: 2.0792 - val_accuracy: 0.1277
2024-02-29 15:26:34.379567: W tensorflow/python/util/util.cc:348] Sets are not currently considered sequences, but this may change in the future, so consider avoiding using them.
…
