…
2024-03-21 19:59:34.468018: I tensorflow/compiler/mlir/mlir_graph_optimization_pass.cc:116] None of the MLIR optimization passes are enabled (registered 2)
2024-03-21 19:59:34.468421: I tensorflow/core/platform/profile_utils/cpu_utils.cc:112] CPU Frequency: 2600000000 Hz
 
first y shape:  (112000, 8)
datagenerator definition successfull
start AI architecture definition
Model: "model"
_________________________________________________________________
Layer (type)                 Output Shape              Param #   
=================================================================
input1 (InputLayer)          [(None, 2, 2048, 1)]      0         
_________________________________________________________________
conv2d (Conv2D)              (None, 1, 2041, 40)       680       
_________________________________________________________________
dropout (Dropout)            (None, 1, 2041, 40)       0         
_________________________________________________________________
conv2d_1 (Conv2D)            (None, 1, 2038, 10)       1610      
_________________________________________________________________
dropout_1 (Dropout)          (None, 1, 2038, 10)       0         
_________________________________________________________________
flatten (Flatten)            (None, 20380)             0         
_________________________________________________________________
dense1 (Dense)               (None, 128)               2608768   
_________________________________________________________________
dense2 (Dense)               (None, 8)                 1032      
_________________________________________________________________
reshape (Reshape)            (None, 8)                 0         
=================================================================
Total params: 2,612,090
Trainable params: 2,612,090
Non-trainable params: 0
_________________________________________________________________
end of architecture
 
Training start
Epoch 1/100
2450/2450 - 514s - loss: 1.6138 - accuracy: 0.3491 - val_loss: 1.2410 - val_accuracy: 0.4799
2024-03-21 20:08:08.565206: W tensorflow/python/util/util.cc:348] Sets are not currently considered sequences, but this may change in the future, so consider avoiding using them.
…
