…
2024-02-26 22:48:55.903461: I tensorflow/compiler/mlir/mlir_graph_optimization_pass.cc:116] None of the MLIR optimization passes are enabled (registered 2)
2024-02-26 22:48:55.904142: I tensorflow/core/platform/profile_utils/cpu_utils.cc:112] CPU Frequency: 2600000000 Hz
 
first y shape:  (112000, 8)
datagenerator definition successfull
start AI architecture definition
Model: "model"
_________________________________________________________________
Layer (type)                 Output Shape              Param #   
=================================================================
input1 (InputLayer)          [(None, 2, 4096, 1)]      0         
_________________________________________________________________
conv2d (Conv2D)              (None, 1, 4089, 40)       680       
_________________________________________________________________
dropout (Dropout)            (None, 1, 4089, 40)       0         
_________________________________________________________________
conv2d_1 (Conv2D)            (None, 1, 4086, 10)       1610      
_________________________________________________________________
dropout_1 (Dropout)          (None, 1, 4086, 10)       0         
_________________________________________________________________
flatten (Flatten)            (None, 40860)             0         
_________________________________________________________________
dense1 (Dense)               (None, 128)               5230208   
_________________________________________________________________
dense2 (Dense)               (None, 8)                 1032      
_________________________________________________________________
reshape (Reshape)            (None, 8)                 0         
=================================================================
Total params: 5,233,530
Trainable params: 5,233,530
Non-trainable params: 0
_________________________________________________________________
end of architecture
 
Training start
Epoch 1/100
2450/2450 - 658s - loss: 1.6904 - accuracy: 0.3072 - val_loss: 1.3280 - val_accuracy: 0.4393
2024-02-26 22:59:53.964971: W tensorflow/python/util/util.cc:348] Sets are not currently considered sequences, but this may change in the future, so consider avoiding using them.
…
