…
2024-02-27 16:12:07.648268: I tensorflow/compiler/mlir/mlir_graph_optimization_pass.cc:116] None of the MLIR optimization passes are enabled (registered 2)
2024-02-27 16:12:07.648678: I tensorflow/core/platform/profile_utils/cpu_utils.cc:112] CPU Frequency: 2600000000 Hz
 
first y shape:  (112000, 8)
datagenerator definition successfull
start AI architecture definition
Model: "model"
_________________________________________________________________
Layer (type)                 Output Shape              Param #   
=================================================================
input3 (InputLayer)          [(None, 2, 1024, 1)]      0         
_________________________________________________________________
conv2d (Conv2D)              (None, 1, 1017, 40)       680       
_________________________________________________________________
dropout (Dropout)            (None, 1, 1017, 40)       0         
_________________________________________________________________
conv2d_1 (Conv2D)            (None, 1, 1014, 10)       1610      
_________________________________________________________________
dropout_1 (Dropout)          (None, 1, 1014, 10)       0         
_________________________________________________________________
flatten (Flatten)            (None, 10140)             0         
_________________________________________________________________
dense1 (Dense)               (None, 128)               1298048   
_________________________________________________________________
dense2 (Dense)               (None, 8)                 1032      
_________________________________________________________________
reshape (Reshape)            (None, 8)                 0         
=================================================================
Total params: 1,301,370
Trainable params: 1,301,370
Non-trainable params: 0
_________________________________________________________________
end of architecture
 
Loading model
end of loading
 
Evaluating model
   1/1050 [..............................] - ETA: 5:36 - loss: 0.3748 - accuracy: 0.8438
…
