…
2024-02-28 10:20:19.018356: I tensorflow/compiler/mlir/mlir_graph_optimization_pass.cc:116] None of the MLIR optimization passes are enabled (registered 2)
2024-02-28 10:20:19.018758: I tensorflow/core/platform/profile_utils/cpu_utils.cc:112] CPU Frequency: 2600000000 Hz
 
first y shape:  (112000, 8)
datagenerator definition successfull
start AI architecture definition
Model: "model"
_________________________________________________________________
Layer (type)                 Output Shape              Param #   
=================================================================
input5 (InputLayer)          [(None, 2, 256, 1)]       0         
_________________________________________________________________
conv2d (Conv2D)              (None, 1, 249, 40)        680       
_________________________________________________________________
dropout (Dropout)            (None, 1, 249, 40)        0         
_________________________________________________________________
conv2d_1 (Conv2D)            (None, 1, 246, 40)        6440      
_________________________________________________________________
dropout_1 (Dropout)          (None, 1, 246, 40)        0         
_________________________________________________________________
flatten (Flatten)            (None, 9840)              0         
_________________________________________________________________
dense1 (Dense)               (None, 128)               1259648   
_________________________________________________________________
dense2 (Dense)               (None, 8)                 1032      
_________________________________________________________________
reshape (Reshape)            (None, 8)                 0         
=================================================================
Total params: 1,267,800
Trainable params: 1,267,800
Non-trainable params: 0
_________________________________________________________________
end of architecture
 
Training start
Epoch 1/100
2450/2450 - 72s - loss: 2.0727 - accuracy: 0.1422 - val_loss: 2.0390 - val_accuracy: 0.1895
2024-02-28 10:21:31.135385: W tensorflow/python/util/util.cc:348] Sets are not currently considered sequences, but this may change in the future, so consider avoiding using them.
…
