…
Layer (type)                    Output Shape         Param #     Connected to                     
==================================================================================================
input1 (InputLayer)             [(None, 2, 4096, 1)] 0                                            
__________________________________________________________________________________________________
input2 (InputLayer)             [(None, 2, 2048, 1)] 0                                            
__________________________________________________________________________________________________
conv2d (Conv2D)                 (None, 1, 4089, 40)  680         input1[0][0]                     
__________________________________________________________________________________________________
conv2d_2 (Conv2D)               (None, 1, 2041, 40)  680         input2[0][0]                     
__________________________________________________________________________________________________
dropout (Dropout)               (None, 1, 4089, 40)  0           conv2d[0][0]                     
__________________________________________________________________________________________________
dropout_2 (Dropout)             (None, 1, 2041, 40)  0           conv2d_2[0][0]                   
__________________________________________________________________________________________________
conv2d_1 (Conv2D)               (None, 1, 4086, 10)  1610        dropout[0][0]                    
__________________________________________________________________________________________________
conv2d_3 (Conv2D)               (None, 1, 2038, 10)  1610        dropout_2[0][0]                  
__________________________________________________________________________________________________
dropout_1 (Dropout)             (None, 1, 4086, 10)  0           conv2d_1[0][0]                   
__________________________________________________________________________________________________
dropout_3 (Dropout)             (None, 1, 2038, 10)  0           conv2d_3[0][0]                   
__________________________________________________________________________________________________
flatten (Flatten)               (None, 40860)        0           dropout_1[0][0]                  
__________________________________________________________________________________________________
flatten_1 (Flatten)             (None, 20380)        0           dropout_3[0][0]                  
__________________________________________________________________________________________________
concatenate (Concatenate)       (None, 61240)        0           flatten[0][0]                    
                                                                 flatten_1[0][0]                  
__________________________________________________________________________________________________
dense1 (Dense)                  (None, 128)          7838848     concatenate[0][0]                
__________________________________________________________________________________________________
dense2 (Dense)                  (None, 8)            1032        dense1[0][0]                     
__________________________________________________________________________________________________
reshape (Reshape)               (None, 8)            0           dense2[0][0]                     
==================================================================================================
Total params: 7,844,460
Trainable params: 7,844,460
Non-trainable params: 0
__________________________________________________________________________________________________
end of architecture
 
Training start
Epoch 1/100
2450/2450 - 1104s - loss: 1.7651 - accuracy: 0.2689 - val_loss: 1.1859 - val_accuracy: 0.4540
…
