…
2024-02-27 16:35:17.125350: I tensorflow/compiler/mlir/mlir_graph_optimization_pass.cc:116] None of the MLIR optimization passes are enabled (registered 2)
2024-02-27 16:35:17.125762: I tensorflow/core/platform/profile_utils/cpu_utils.cc:112] CPU Frequency: 2600000000 Hz
 
first y shape:  (112000, 8)
datagenerator definition successfull
start AI architecture definition
Model: "model"
_________________________________________________________________
Layer (type)                 Output Shape              Param #   
=================================================================
input4 (InputLayer)          [(None, 2, 512, 1)]       0         
_________________________________________________________________
conv2d (Conv2D)              (None, 1, 505, 40)        680       
_________________________________________________________________
dropout (Dropout)            (None, 1, 505, 40)        0         
_________________________________________________________________
conv2d_1 (Conv2D)            (None, 1, 502, 10)        1610      
_________________________________________________________________
dropout_1 (Dropout)          (None, 1, 502, 10)        0         
_________________________________________________________________
flatten (Flatten)            (None, 5020)              0         
_________________________________________________________________
dense1 (Dense)               (None, 128)               642688    
_________________________________________________________________
dense2 (Dense)               (None, 8)                 1032      
_________________________________________________________________
reshape (Reshape)            (None, 8)                 0         
=================================================================
Total params: 646,010
Trainable params: 646,010
Non-trainable params: 0
_________________________________________________________________
end of architecture
 
Training start
Epoch 1/100
2450/2450 - 84s - loss: 2.0611 - accuracy: 0.1491 - val_loss: 1.9936 - val_accuracy: 0.2139
2024-02-27 16:36:40.959395: W tensorflow/python/util/util.cc:348] Sets are not currently considered sequences, but this may change in the future, so consider avoiding using them.
…
