…
input4 (InputLayer)             [(None, 2, 64, 1)]   0                                            
__________________________________________________________________________________________________
input5 (InputLayer)             [(None, 2, 32, 1)]   0                                            
__________________________________________________________________________________________________
input6 (InputLayer)             [(None, 2, 16, 1)]   0                                            
__________________________________________________________________________________________________
conv2d (Conv2D)                 (None, 1, 505, 40)   680         input1[0][0]                     
__________________________________________________________________________________________________
conv2d_2 (Conv2D)               (None, 1, 249, 40)   680         input2[0][0]                     
__________________________________________________________________________________________________
conv2d_4 (Conv2D)               (None, 1, 121, 40)   680         input3[0][0]                     
__________________________________________________________________________________________________
conv2d_6 (Conv2D)               (None, 1, 57, 40)    680         input4[0][0]                     
__________________________________________________________________________________________________
conv2d_8 (Conv2D)               (None, 1, 25, 40)    680         input5[0][0]                     
__________________________________________________________________________________________________
conv2d_10 (Conv2D)              (None, 1, 9, 30)     510         input6[0][0]                     
__________________________________________________________________________________________________
dropout (Dropout)               (None, 1, 505, 40)   0           conv2d[0][0]                     
__________________________________________________________________________________________________
dropout_2 (Dropout)             (None, 1, 249, 40)   0           conv2d_2[0][0]                   
__________________________________________________________________________________________________
dropout_4 (Dropout)             (None, 1, 121, 40)   0           conv2d_4[0][0]                   
__________________________________________________________________________________________________
dropout_6 (Dropout)             (None, 1, 57, 40)    0           conv2d_6[0][0]                   
__________________________________________________________________________________________________
dropout_8 (Dropout)             (None, 1, 25, 40)    0           conv2d_8[0][0]                   
__________________________________________________________________________________________________
dropout_10 (Dropout)            (None, 1, 9, 30)     0           conv2d_10[0][0]                  
__________________________________________________________________________________________________
conv2d_1 (Conv2D)               (None, 1, 502, 10)   1610        dropout[0][0]                    
__________________________________________________________________________________________________
conv2d_3 (Conv2D)               (None, 1, 246, 10)   1610        dropout_2[0][0]                  
__________________________________________________________________________________________________
conv2d_5 (Conv2D)               (None, 1, 118, 10)   1610        dropout_4[0][0]                  
__________________________________________________________________________________________________
conv2d_7 (Conv2D)               (None, 1, 54, 10)    1610        dropout_6[0][0]                  
__________________________________________________________________________________________________
conv2d_9 (Conv2D)               (None, 1, 22, 40)    6440        dropout_8[0][0]                  
__________________________________________________________________________________________________
conv2d_11 (Conv2D)              (None, 1, 6, 10)     1210        dropout_10[0][0]                 
__________________________________________________________________________________________________
dropout_1 (Dropout)             (None, 1, 502, 10)   0           conv2d_1[0][0]                   
__________________________________________________________________________________________________
dropout_3 (Dropout)             (None, 1, 246, 10)   0           conv2d_3[0][0]                   
__________________________________________________________________________________________________
dropout_5 (Dropout)             (None, 1, 118, 10)   0           conv2d_5[0][0]                   
__________________________________________________________________________________________________
dropout_7 (Dropout)             (None, 1, 54, 10)    0           conv2d_7[0][0]                   
__________________________________________________________________________________________________
dropout_9 (Dropout)             (None, 1, 22, 40)    0           conv2d_9[0][0]                   
__________________________________________________________________________________________________
dropout_11 (Dropout)            (None, 1, 6, 10)     0           conv2d_11[0][0]                  
__________________________________________________________________________________________________
flatten (Flatten)               (None, 5020)         0           dropout_1[0][0]                  
__________________________________________________________________________________________________
flatten_1 (Flatten)             (None, 2460)         0           dropout_3[0][0]                  
__________________________________________________________________________________________________
flatten_2 (Flatten)             (None, 1180)         0           dropout_5[0][0]                  
__________________________________________________________________________________________________
flatten_3 (Flatten)             (None, 540)          0           dropout_7[0][0]                  
__________________________________________________________________________________________________
flatten_4 (Flatten)             (None, 880)          0           dropout_9[0][0]                  
__________________________________________________________________________________________________
flatten_5 (Flatten)             (None, 60)           0           dropout_11[0][0]                 
__________________________________________________________________________________________________
concatenate (Concatenate)       (None, 10140)        0           flatten[0][0]                    
                                                                 flatten_1[0][0]                  
                                                                 flatten_2[0][0]                  
                                                                 flatten_3[0][0]                  
                                                                 flatten_4[0][0]                  
                                                                 flatten_5[0][0]                  
__________________________________________________________________________________________________
dense1 (Dense)                  (None, 256)          2596096     concatenate[0][0]                
__________________________________________________________________________________________________
dense2 (Dense)                  (None, 8)            2056        dense1[0][0]                     
__________________________________________________________________________________________________
reshape (Reshape)               (None, 8)            0           dense2[0][0]                     
==================================================================================================
Total params: 2,616,152
Trainable params: 2,616,152
Non-trainable params: 0
__________________________________________________________________________________________________
end of architecture
 
Training start
Epoch 1/100
2450/2450 - 161s - loss: 1.6860 - accuracy: 0.3045 - val_loss: 1.4052 - val_accuracy: 0.4167
…
