…
input4 (InputLayer)             [(None, 2, 4096, 1)] 0                                            
__________________________________________________________________________________________________
input5 (InputLayer)             [(None, 2, 2048, 1)] 0                                            
__________________________________________________________________________________________________
input6 (InputLayer)             [(None, 2, 1024, 1)] 0                                            
__________________________________________________________________________________________________
conv2d (Conv2D)                 (None, 1, 32761, 40) 680         input1[0][0]                     
__________________________________________________________________________________________________
conv2d_2 (Conv2D)               (None, 1, 16377, 40) 680         input2[0][0]                     
__________________________________________________________________________________________________
conv2d_4 (Conv2D)               (None, 1, 8185, 40)  680         input3[0][0]                     
__________________________________________________________________________________________________
conv2d_6 (Conv2D)               (None, 1, 4089, 40)  680         input4[0][0]                     
__________________________________________________________________________________________________
conv2d_8 (Conv2D)               (None, 1, 2041, 40)  680         input5[0][0]                     
__________________________________________________________________________________________________
conv2d_10 (Conv2D)              (None, 1, 1017, 30)  510         input6[0][0]                     
__________________________________________________________________________________________________
dropout (Dropout)               (None, 1, 32761, 40) 0           conv2d[0][0]                     
__________________________________________________________________________________________________
dropout_2 (Dropout)             (None, 1, 16377, 40) 0           conv2d_2[0][0]                   
__________________________________________________________________________________________________
dropout_4 (Dropout)             (None, 1, 8185, 40)  0           conv2d_4[0][0]                   
__________________________________________________________________________________________________
dropout_6 (Dropout)             (None, 1, 4089, 40)  0           conv2d_6[0][0]                   
__________________________________________________________________________________________________
dropout_8 (Dropout)             (None, 1, 2041, 40)  0           conv2d_8[0][0]                   
__________________________________________________________________________________________________
dropout_10 (Dropout)            (None, 1, 1017, 30)  0           conv2d_10[0][0]                  
__________________________________________________________________________________________________
conv2d_1 (Conv2D)               (None, 1, 32758, 10) 1610        dropout[0][0]                    
__________________________________________________________________________________________________
conv2d_3 (Conv2D)               (None, 1, 16374, 10) 1610        dropout_2[0][0]                  
__________________________________________________________________________________________________
conv2d_5 (Conv2D)               (None, 1, 8182, 10)  1610        dropout_4[0][0]                  
__________________________________________________________________________________________________
conv2d_7 (Conv2D)               (None, 1, 4086, 10)  1610        dropout_6[0][0]                  
__________________________________________________________________________________________________
conv2d_9 (Conv2D)               (None, 1, 2038, 40)  6440        dropout_8[0][0]                  
__________________________________________________________________________________________________
conv2d_11 (Conv2D)              (None, 1, 1014, 10)  1210        dropout_10[0][0]                 
__________________________________________________________________________________________________
dropout_1 (Dropout)             (None, 1, 32758, 10) 0           conv2d_1[0][0]                   
__________________________________________________________________________________________________
dropout_3 (Dropout)             (None, 1, 16374, 10) 0           conv2d_3[0][0]                   
__________________________________________________________________________________________________
dropout_5 (Dropout)             (None, 1, 8182, 10)  0           conv2d_5[0][0]                   
__________________________________________________________________________________________________
dropout_7 (Dropout)             (None, 1, 4086, 10)  0           conv2d_7[0][0]                   
__________________________________________________________________________________________________
dropout_9 (Dropout)             (None, 1, 2038, 40)  0           conv2d_9[0][0]                   
__________________________________________________________________________________________________
dropout_11 (Dropout)            (None, 1, 1014, 10)  0           conv2d_11[0][0]                  
__________________________________________________________________________________________________
flatten (Flatten)               (None, 327580)       0           dropout_1[0][0]                  
__________________________________________________________________________________________________
flatten_1 (Flatten)             (None, 163740)       0           dropout_3[0][0]                  
__________________________________________________________________________________________________
flatten_2 (Flatten)             (None, 81820)        0           dropout_5[0][0]                  
__________________________________________________________________________________________________
flatten_3 (Flatten)             (None, 40860)        0           dropout_7[0][0]                  
__________________________________________________________________________________________________
flatten_4 (Flatten)             (None, 81520)        0           dropout_9[0][0]                  
__________________________________________________________________________________________________
flatten_5 (Flatten)             (None, 10140)        0           dropout_11[0][0]                 
__________________________________________________________________________________________________
concatenate (Concatenate)       (None, 705660)       0           flatten[0][0]                    
                                                                 flatten_1[0][0]                  
                                                                 flatten_2[0][0]                  
                                                                 flatten_3[0][0]                  
                                                                 flatten_4[0][0]                  
                                                                 flatten_5[0][0]                  
__________________________________________________________________________________________________
dense1 (Dense)                  (None, 128)          90324608    concatenate[0][0]                
__________________________________________________________________________________________________
dense2 (Dense)                  (None, 8)            1032        dense1[0][0]                     
__________________________________________________________________________________________________
reshape (Reshape)               (None, 8)            0           dense2[0][0]                     
==================================================================================================
Total params: 90,343,640
Trainable params: 90,343,640
Non-trainable params: 0
__________________________________________________________________________________________________
end of architecture
 
Training start
Epoch 1/100
2450/2450 - 11196s - loss: 14.0986 - accuracy: 0.1250 - val_loss: 14.1034 - val_accuracy: 0.1250
…
